checkpoint_618.pth (torch, 89957 bytes, 6 tensors)

fc1.weight f4 [128, 37]
-0.27054727 0.07486991 0.058279485 -0.14380907 -0.12834427 0.09485705 -0.05242155 -0.08348279
0.01997535 -0.1200597 -0.032392446 -0.15315352 -0.02725449 -0.18152888 -0.09949333 -0.121690564
-0.019784417 0.24507773 -0.19606006 -0.035164677 -0.28134537 0.08677866 0.14620903 0.33831298
-0.15494297 0.07610608 0.18197197 -0.27520192 -0.26359558 -0.0579549 -0.08913824 0.12914427
-0.21378641 0.075548515 -0.3897816 -0.19893219 0.00045228776 0.094676584 -0.14299294 0.08923733
0.095022 -0.28017986 -0.020843826 -0.2418839 -0.06054708 -0.47928494 -0.6380942 0.03928154
-0.17338623 -0.098249756 0.19703491 0.11803051 -0.39360744 0.096661836 0.20773824 -0.09556677
-0.06655624 -0.1949815 -0.2050144 -0.071688704 0.059797432 -0.041863646 -0.15560453 0.13330075
-0.15545087 0.15522683 -0.19985068 -0.048644852 0.1046622 0.15908577 -0.14476773 0.1613173
0.0023235902 0.032651648 0.29463178 0.20175636 -0.011829649 -0.1644027 0.18870322 -0.2995943
-0.046534628 0.20833749 0.097507805 -0.16420761 0.07818188 0.09320439 -0.14768134 -0.24570134
0.10875482 -0.37286305 0.043230478 0.25641182 0.13741355 -0.026308011 -0.16565385 -0.06579563
0.03587669 -0.0031944395 -0.22057857 -0.37693617 0.23661178 0.21575643 -0.20108382 0.08038054
-0.32455108 0.057415135 -0.15953195 -0.09025129 -0.2570033 0.009012904 0.00196542 0.17477095
-0.30967948 0.24159122 -0.065641716 -0.1257951 0.088169366 -0.09565691 -0.1026276 0.09646506
0.09840892 0.005741726 -0.04490356 0.0018345491 0.011293918 0.046662156 0.043386158 -0.12108554
-0.13980393 -0.1951766 0.042295795 0.08256858 -0.028048506 -0.25053254 0.16481237 -0.30376765
0.17914155 -0.13280448 -0.110905334 0.01724949 0.1779923 0.18689269 0.11216458 -0.024707934
-0.19475263 -0.19845113 0.115338705 -0.007482871 -0.40927136 -0.06013909 -0.13699216 -0.030975297
0.09773975 0.025955971 0.0015240875 0.06247554 -0.05589687 -0.57279706 -0.17846699 0.15252198
-0.14841461 -0.11853038 -0.7293664 -0.008574421 -0.019875199 -0.07601073 -0.2730365 0.20825359
-0.0019989642 0.13660443 -0.017592246 -0.36894816 -0.10709023 -0.08327808 -0.27884805 0.29734764
-0.5329886 -0.84012216 0.24025841 -0.11965777 -0.089771286 -0.21846224 -0.035062823 0.09448763
0.008028489 -0.03465963 -0.03941733 -0.2179961 0.115787774 -0.079692446 0.15697874 -0.032748476
-0.053343363 -0.1431084 -0.93338275 -0.08119018 -0.066250704 -0.007784097 -0.3323232 -0.1279208
-0.0056539616 0.11080638 -0.31632465 -0.081047386 -0.024282549 0.16962042 -0.35131356 0.097480096
0.015908053 -0.5514955 0.035898857 -0.07549088 0.004543059 -0.61472857 -0.10844716 -0.04419972
-0.049309477 0.024465278 -0.1570313 -0.2391949 0.036131468 0.05436126 0.020551786 0.12175482
-0.1276731 -0.12193484 -0.11896443 -0.022208247 -0.20248985 -0.09957041 0.13735688 0.26911646
0.07179813 0.12472623 -0.026253033 -0.033524536 0.04048195 -0.17245866 -0.008253371 -0.053659353
0.11458259 0.3502231 -0.10204284 -0.16265965 0.107245624 0.109847225 0.21142846 -0.21020098
-0.03202281 -0.013235824 0.0051792227 -0.01415983 0.26100963 -0.11492782 -0.56505257 -0.27554873
00000000: 2c85 8abe 6555 993d 78b6 6e3d af42 13be
00000010: ae6c 03be 6a44 c23d fbb7 56bd 06f9 aabd
00000020: 58a3 a33c dce1 f5bd f1ad 04bd 47d4 1cbe
00000030: cf44 dfbc b5e2 39be 29c3 cbbd e738 f9bd
00000040: ee12 a2bc a8f5 7a3e f8c3 48be d608 10bd
00000050: 800c 90be 03b9 b13d d2b7 153e 5c37 ad3e
00000060: 5fa9 1ebe 81dd 9b3d dc56 3a3e 44e7 8cbe
00000070: 00f6 86be 1e62 6dbd 1c8e b6bd 653e 043e
00000080: d3ea 5abe 2eb9 9a3d 7491 c7be e1b4 4bbe
00000090: 0921 ed39 cce5 c13d be6c 12be 10c2 b63d
000000a0: e59a c23d bc73 8fbe acc0 aabc 6ab0 77be
000000b0: 3700 78bd d664 f5be 245a 23bf aee5 203d
000000c0: 298c 31be 2b37 c9bd 85c3 493e fbb9 f13d
000000d0: ea86 c9be a4f6 c53d 55b9 543e 83b8 c3bd
000000e0: a34e 88bd 3ba9 47be 4bef 51be 87d1 92bd
000000f0: 27ee 743d 3779 2bbd cb56 1fbe fe7f 083e
00000100: 832e 1fbe c8f3 1e3e a8a5 4cbe d33f 47bd
00000110: 2359 d63d 61e7 223e fe3d 14be 5d30 253e
00000120: 6047 183b bcbd 053d fad9 963e 3899 4e3e
00000130: 25d1 41bc 2e59 28be 6b3b 413e 6d64 99be
00000140: 189b 3ebd 6c56 553e 2cb2 c73d 0a26 28be
00000150: d21d a03d f1e1 be3d c739 17be 2299 7bbe
00000160: d9ba de3d e8e7 bebe 7112 313d 6948 833e
00000170: 23b6 0c3e e683 d7bc 2aa1 29be dcbf 86bd
00000180: 70f3 123d cd59 51bb 59df 61be c7fd c0be
00000190: 5c4a 723e 41ef 5c3e ebe8 4dbe 8d9e a43d
000001a0: 8f2b a6be 222c 6b3d 585c 23be abd5 b8bd
000001b0: f095 83be dcaa 133c 47ce 003b 28f7 323e
000001c0: 4f8e 9ebe b063 773e 2a6f 86bd 6ed0 00be
000001d0: 2492 b43d c5e7 c3bd 6b2e d2bd 798f c53d
000001e0: 9e8a c93d 1725 bc3b ccec 37bd 4175 f03a
000001f0: 200a 393c d120 3f3d afb5 313d b2fb f7bd
00000200: c328 0fbe 60dc 47be 5b3e 2d3d b719 a93d
00000210: fbc5 e5bc cd45 80be 93c4 283e 6f87 9bbe
00000220: e270 373e e6fd 07be 5622 e3bd cd4e 8d3c
00000230: 9d43 363e cc60 3f3e 8bb6 e53d 4b68 cabc
00000240: 3c6d 47be c636 4bbe b336 ec3d df32 f5bb
00000250: 048c d1be 6854 76bd ac47 0cbe e8bf fdbc
00000260: c72b c83d 9ea1 d43c e4c3 c73a 5ae6 7f3d
00000270: 1ef4 64bd d4a2 12bf 0dc0 36be b92e 1c3e
00000280: 00fa 17be 0ec0 f2bd c2b7 3abf ba7b 0cbc
00000290: 50d1 a2bc 83ab 9bbd 71cb 8bbe 6e40 553e
000002a0: 0e01 03bb 08e2 0b3e 9d1d 90bc c6e6 bcbe
000002b0: 1f52 dbbd b38d aabd 2cc5 8ebe f33d 983e
000002c0: f171 08bf 3f12 57bf 4d06 763e 220f f5bd
000002d0: 02da b7bd 91b4 5fbe 099e 0fbd bb82 c13d
000002e0: ec89 033c 42f7 0dbd 1174 21bd 5f3a 5fbe
000002f0: 2422 ed3d cb35 a3bd 09bf 203e 4423 06bd
00000300: 927e 5abd 028b 12be 2cf2 6ebf 0947 a6bd
00000310: 73ae 87bd bd11 ffbb 4426 aabe acfd 02be
00000320: de44 b9bb 75ee e23d 4ef5 a1be 2cfc a5bd
00000330: 32ec c6bc fab0 2d3e 5fdf b3be a5a3 c73d
00000340: 9b51 823c cf2e 0dbf ae0a 133d f69a 9abd
00000350: f1dd 943b da5e 1dbf 8b19 debd c40a 35bd
00000360: bcf8 49bd 686b c83c d0cc 20be 82ef 74be
00000370: 97fe 133d eaa9 5e3d 385c a83c 975a f93d
00000380: bdbc 02be f9b8 f9bd a0a3 f3bd 12ee b5bc
00000390: 8059 4fbe 92eb cbbd 48a7 0c3e a2c9 893e
000003a0: e60a 933d 7770 ff3d 9a10 d7bc 0651 09bd
000003b0: 67d0 253d 0199 30be 2639 07bc e9c9 5bbd
000003c0: 47aa ea3d 7150 b33e d6fb d0bd 4090 26be
000003d0: 98a3 db3d 95f7 e03d b480 583e ed3e 57be
000003e0: 5a2a 03bd 12db 58bc 78b6 a93b a2fe 67bc
000003f0: 0ea3 853e 475f ebbd 49a7 10bf b914 8dbe

fc1.bias f4 [128]
-0.072223924 -0.024123095 -0.080651306 -0.084949926 -0.014822198 -0.115700506 0.060986742 0.039912358
-0.14432414 0.08326976 -0.042000838 0.054783918 -0.034129087 -0.0628182 -0.16299549 -0.065681554
0.010981353 -0.01810983 -0.07242796 -0.006557455 -0.0994535 0.065591715 0.25605562 -0.08410479
-0.016307833 0.09941204 0.13858701 -0.0075911735 -0.081007 0.007947778 0.093454115 0.06455956
-0.042818137 0.059727114 -0.022838568 -0.2255831 0.011698723 0.07666587 0.027944194 -0.041844662
-0.054508287 0.096180536 0.114945896 -0.03979868 0.03021447 -0.112199396 -0.020563444 -0.14697047
-0.19045956 -0.0008905458 0.04857642 -0.047084477 0.10824443 0.11172403 -0.050663415 0.062795304
-0.10885264 -0.057698637 0.09517669 -0.022778425 -0.24110341 0.0027222289 0.04602103 -0.13780679
0.15462123 -0.011173803 0.0030131845 -0.06538088 -0.22334832 -0.0025877107 -0.09020235 -0.054240227
0.04208851 -0.1580533 -0.15769546 -0.03173307 0.10114974 -0.13503292 0.16828752 0.013755731
0.032671507 0.019905776 0.038489945 -0.049937908 0.023021884 0.14949703 0.07191828 -0.08636903
-0.028423669 0.07157902 0.10951125 -0.02478957 -0.14418903 -0.18965277 -0.05492428 0.079640515
-0.068843074 -0.18857041 -0.15968366 0.082180776 -0.1331493 -0.11959858 0.08732505 0.16544688
-0.23405753 -0.18456458 -0.019566355 0.13272929 -0.193862 -0.12724452 0.06356572 -0.07387456
-0.08252108 -0.089434855 -0.0140141845 0.09300321 0.11208508 0.07884112 -0.009041653 0.021624189
-0.06537406 0.030217038 -0.061433163 -0.12924169 -0.06117553 -0.02882148 0.10701424 -0.10364827
00000000: 23ea 93bd cc9d c5bc 832c a5bd 3afa adbd
00000010: ced8 72bc 63f4 ecbd 3ccd 793d 247b 233d
00000020: b5c9 13be 5689 aa3d 1209 2cbd 1a65 603d
00000030: f1ca 0bbd d4a6 80bd 4ae8 26be 0d84 86bd
00000040: 22eb 333c 115b 94bc 1c55 94bd ebdf d6bb
00000050: 47ae cbbd f354 863d b919 833e 223f acbd
00000060: 0198 85bc 8a98 cb3d c1e9 0d3e 61bf f8bb
00000070: ffe6 a5bd 6637 023c df64 bf3d cd37 843d
00000080: 1262 2fbd 6ba4 743d f317 bbbc 42ff 66be
00000090: 00ac 3f3c ff02 9d3d 39eb e43c 4f65 2bbd
000000a0: 1544 5fbd 4dfa c43d c168 eb3d f103 23bd
000000b0: 5684 f73c ccc8 e5bd ab74 a8bc 6d7f 16be
000000c0: d507 43be 8473 69ba 11f8 463d a7db 40bd
000000d0: 41af dd3d 91cf e43d 7184 4fbd d39a 803d
000000e0: 22ee debd 6855 6cbd ffeb c23d d299 babc
000000f0: d0e3 76be 6c67 323b 8c80 3c3d 391d 0dbe
00000100: 0755 1e3e 5412 37bc d978 453b 69e6 85bd
00000110: 6cb5 64be 9596 29bb 02bc b8bd 002b 5ebd
00000120: 0065 2c3d b9d8 21be eb7a 21be 89fa 01bd
00000130: 9827 cf3d 1246 0abe 9053 2c3e b85f 613c
00000140: 8fd2 053d 7011 a33c a2a7 1d3d b18b 4cbd
00000150: 6498 bc3c c015 193e e449 933d 3fe2 b0bd
00000160: c1d8 e8bc 0598 923d 6f47 e03d 7f13 cbbc
00000170: 4aa6 13be 5634 42be 48f8 60bd 911a a33d
00000180: 99fd 8cbd 9a18 41be 1d84 23be 654e a83d
00000190: 4a58 08be 1af0 f4bd 7ad7 b23d e86a 293e
000001a0: c7ac 6fbe 7ffe 3cbe 9f49 a0bc 30ea 073e
000001b0: c383 46be 634c 02be bf2e 823d 8c4b 97bd
000001c0: d000 a9bd 9f29 b7bd c09b 65bc 7878 be3d
000001d0: dd8c e53d 7477 a13d 7123 14bc 3625 b13c
000001e0: d6e2 85bd b989 f73c 57a1 7bbd ef57 04be
000001f0: 3193 7abd 061b ecbc 482a db3d 8b45 d4bd

fc2.weight f4 [128, 128]
-0.06626194 -0.0075094583 -0.00673432 0.043802213 -0.05637768 -0.019986058 0.08418463 0.057502665
0.0769863 0.2021538 0.1335682 0.12518921 0.042117607 -0.1122244 -0.0655174 0.05588445
0.0694411 -0.10732946 -0.046502072 -0.07170266 0.07869225 0.050241347 0.07556588 -0.046402298
0.0006810208 0.071272016 0.022614764 0.010792148 -0.053000532 0.14128326 -0.10304844 0.04112993
0.06863045 -0.032444585 -0.024263483 -0.037725046 0.03035824 -0.041830774 -0.048636317 0.07406439
-0.06901889 -0.2087467 0.0049287174 -0.068789475 -0.0050999587 -0.0066739568 -0.16640924 -0.21027157
-0.027350709 -0.07317322 0.060960717 -0.05490808 -0.058983434 -0.09265922 -0.04758995 0.16842037
0.08623138 -0.13273373 0.12943417 0.05516485 -0.021430321 -0.02696866 0.027506325 -0.09724376
0.05230425 0.016660638 0.055873558 -0.12950304 -0.101942234 0.05161184 0.09117244 0.03658004
0.042965982 -0.04057993 -0.09519284 -0.019297829 -0.09910972 -0.08050107 0.1755139 0.09041368
0.2111685 0.041528713 0.18586534 -0.06379325 -0.06757547 -0.055337213 0.07560079 -0.0035548273
-0.026870428 0.1466836 -0.05307325 -0.051595714 -0.07779933 -0.1415418 0.14151756 -0.074183926
0.005818925 0.02943777 0.009446561 0.016413776 -0.011000636 0.0072228424 0.06702335 -0.06989309
-0.021053236 0.011861043 -0.14190021 0.003168314 0.031343877 -0.015530498 0.013381039 -0.12565863
0.0129143195 0.101309665 -0.08456342 -0.028601756 0.20501725 0.129102 -0.0852207 0.11042996
0.12585413 -0.21678331 -0.015553932 -0.030544309 -0.057794917 -0.039423972 0.096908025 0.038648847
0.01635304 0.059354283 -0.07973964 0.011842727 -0.083883904 -0.092178985 0.106091574 -0.2552506
-0.072558425 -0.13460061 -0.06556477 0.061975162 0.0016521304 0.08949555 -0.13081948 -0.011733391
-0.30292344 0.040607784 0.014305688 0.0042064735 -0.0125159295 -0.017224448 0.019511353 -0.035110213
-0.07937375 -0.14744022 -0.049103945 -0.05456758 -0.19343859 -0.052586425 -0.016869633 0.0082226
0.108274356 -0.2382394 -0.08364209 0.1182715 0.11976225 0.19154555 0.021365747 -0.07419524
0.0044373013 0.10823426 0.123209335 -0.03828014 -0.035594676 -0.046163343 -0.14377779 0.010158829
-0.10864394 -0.1865341 -0.21653914 0.19897498 -0.075621344 0.06107712 -0.170845 -0.23256022
-0.06870941 0.0013680232 -0.16040601 0.12558097 0.054757528 -0.10977189 -0.04386695 0.19895141
0.030247238 0.02788881 0.028419131 0.17406732 0.0653304 0.41735494 -0.018333642 -0.39963096
-0.10842228 -9.9216544e-05 0.29916048 -0.115910485 0.15821761 -0.08822962 -0.122709416 0.02818971
-0.0906465 -0.04234278 -0.29330245 0.041727282 -0.008821361 0.025442464 -0.0053817416 0.031101858
0.0023757673 -0.15347065 0.09384505 0.02 0.06665913 0.053309284 -0.14514641 0.010708075
0.0699137 0.07974153 0.046314433 0.023297278 -0.010422745 -0.03443002 0.17614876 0.11311979
0.14704935 -0.16701326 0.36749196 0.009117332 -0.036163133 -0.2196354 0.061352614 -0.09924829
-0.33280063 -0.060463496 0.1353916 -0.20457219 0.05952456 0.10632235 -0.010344807 -0.09100124
-0.007846601 0.48057395 -0.020012869 -0.14610519 0.0078004347 -0.011867579 -0.102117196 0.07981934
00000000: 57b4 87bd e711 f6bb 92ab dcbb f369 333d
00000010: 48ec 66bd cdb9 a3bc fe68 ac3d ea87 6b3d
00000020: feaa 9d3d 6801 4f3e 1ac6 083e 9a31 003e
00000030: 8383 2c3d e8d5 e5bd fd2d 86bd 18e7 643d
00000040: 2337 8e3d 8ccf dbbd f578 3ebd d8d8 92bd
00000050: 6729 a13d dfc9 4d3d 49c2 9a3d 5610 3ebd
00000060: 8886 323a 10f7 913d 9942 b93c 8dd1 303c
00000070: 1617 59bd 8fac 103e 0f0b d3bd dc77 283d
00000080: 1f8e 8c3d 9de4 04bd 36c4 c6bc 9485 1abd
00000090: d8b1 f83c bf56 2bbd e036 47bd 12af 973d
000000a0: c759 8dbd b2c1 55be 1481 a13b 7fe1 8cbd
000000b0: 8e1d a7bb 35b1 dabb 2f67 2abe 6e51 57be
000000c0: 980e e0bc d7db 95bd f2b1 793d 4be7 60bd
000000d0: 9d98 71bd 1ec4 bdbd aeed 42bd 6476 2c3e
000000e0: 149a b03d 5aeb 07be 648a 043e 8af4 613d
000000f0: a48e afbc 61ed dcbc f254 e13c bd27 c7bd
00000100: fb3c 563d e47b 883c acdb 643d 729c 04be
00000110: 17c7 d0bd f066 533d 9eb8 ba3d f4d4 153d
00000120: 19fd 2f3d 2437 26bd 77f4 c2bd 7b16 9ebc
00000130: 09fa cabd bfdd a4bd eab9 333e cf2a b93d
00000140: 8e3c 583e 031a 2a3d 7c53 3e3e 09a6 82bd
00000150: 0265 8abd 46a9 62bd 96d4 9a3d 1bf8 68bb
00000160: 5f1f dcbc 3a34 163e 5663 59bd 0756 53bd
00000170: 4155 9fbd 55f0 10be fbe9 103e beed 97bd
00000180: aeac be3b 7a27 f13c c0c5 1a3c 2f76 863c
00000190: 033c 34bc 98ad ec3b 8a43 893d 1c24 8fbd
000001a0: d677 acbc d254 423c 4a4e 11be 7da3 4f3b
000001b0: 7062 003d a173 7ebc 253c 5b3c a8ac 00be
000001c0: 9596 533c 717b cf3d 962f adbd 3b4e eabc
000001d0: 0bf0 513e 5133 043e 3188 aebd 1a29 e23d
000001e0: e8df 003e 72fc 5dbe ebd5 7ebc 0f38 fabc
000001f0: 5dba 6cbd 087b 21bd b777 c63d 414e 1e3d
00000200: cff6 853c 7a1d 733d 894e a3bd ff07 423c
00000210: 53cb abbd 56c8 bcbd 8a46 d93d 35b0 82be
00000220: 8399 94bd bed4 09be d246 86bd abd9 7d3d
00000230: 4c8c d83a 7149 b73d 8bf5 05be 693d 40bc
00000240: c818 9bbe 5954 263d 6862 6a3c 75d6 893b
00000250: 9d0f 4dbc 491a 8dbc 46d6 9f3c bacf 0fbd
00000260: b48e a2bd 92fa 16be 3821 49bd 4182 5fbd
00000270: c414 46be dd64 57bd 2f32 8abc 16b8 063c
00000280: f2be dd3d 07f5 73be 8b4c abbd 5438 f23d
00000290: e945 f53d 8424 443e 3807 af3c adf3 97bd
000002a0: c866 913b eca9 dd3d 2d55 fc3d a3cb 1cbd
000002b0: b9cb 11bd c615 3dbd 7c3a 13be 3871 263c
000002c0: b780 debd cc02 3fbe 70bc 5dbe 19c0 4b3e
000002d0: 5ddf 9abd 012c 7a3d fef1 2ebe 4424 6ebe
000002e0: 85b7 8cbd 3e4f b33a 7941 24be 4c98 003e
000002f0: 6e49 603d 16d0 e0bd d5ad 33bd ebb9 4b3e
00000300: 0ec9 f73c 1377 e43c 3dcf e83c b43e 323e
00000310: f2cb 853d 8caf d53e 6f30 96bc 6e9c ccbe
00000320: 800c debd 7a12 d0b8 902b 993e 7a62 edbd
00000330: cc03 223e bbb1 b4bd 134f fbbd 1bee e63c
00000340: dfa4 b9bd 9f6f 2dbd bd2b 96be 3aea 2a3d
00000350: 7887 10bc b76c d03c 5259 b0bb 53c9 fe3c
00000360: c3b2 1b3b 6927 1dbe d531 c03d 0ad7 a33c
00000370: 9584 883d d65a 5a3d 43a1 14be ec70 2f3c
00000380: ea2e 8f3d 874f a33d 34b4 3d3d efd9 be3c
00000390: 29c4 2abc 7e06 0dbd 5760 343e 59ab e73d
000003a0: 1b94 163e 8605 2bbe e827 bc3e dd60 153c
000003b0: cb1f 14bd 1ae8 60be e14c 7b3d b042 cbbd
000003c0: d864 aabe 92a8 77bd 18a4 0a3e 5f7b 51be
000003d0: 06d0 733d 88bf d93d 447d 29bc dc5e babd
000003e0: 088f 00bc ca0d f63e 07f2 a3bc 999c 15be
000003f0: ca9a ff3b 3c70 42bc d222 d1bd 5278 a33d

fc2.bias f4 [128]
0.43744972 0.014114375 -0.010498275 0.08459599 -0.06380743 0.26052168 0.10998979 0.06888349
-0.04748663 0.42673075 0.08289768 0.008440657 -0.0011374612 -0.055222824 0.09117377 -6.971435e-05
-0.115087874 0.044387445 -0.1338569 -0.17753041 -0.09764102 -0.08969972 -0.053582944 -0.013711981
0.01321186 -0.057464667 -0.18407376 0.16212857 -0.03667475 -0.006741822 -0.080714695 0.038779665
0.049212337 -0.06389998 0.0011434605 -0.028897598 0.15521042 -0.040134866 -0.08299002 0.07446061
-0.06859679 0.018464828 0.046565935 -0.0035770673 -0.07247232 0.20584624 -0.09815652 0.44802743
0.26887167 -0.08657976 0.22028647 -0.08571788 -0.0643744 -0.11247786 0.17055835 0.107257
-0.034206055 0.029276881 0.02001626 0.33364978 -0.0009973429 -0.10056131 -0.09653682 -0.1542801
0.021571202 -0.12580119 -0.11669473 -0.14052536 0.02989968 -0.12738469 0.07137553 -0.0585582
-0.036653463 0.26447847 0.001203714 0.13117154 -0.04591255 0.06883389 -0.07114924 -0.07765808
-0.14739648 -0.17862599 0.5383775 -0.12845567 -0.006549118 -0.050378297 -0.15034209 0.031995576
0.02478967 -0.03465058 -0.017755067 0.019383756 -0.011135843 0.2111009 -0.030570462 -0.07845531
0.027839705 -0.12857263 -0.06046549 -0.13161482 0.3179399 0.084716424 -0.20086916 -0.089087285
-0.10471406 0.05757302 -0.09439447 0.491099 -0.08821938 -0.17286402 0.031508986 -0.06378334
0.08552751 -0.019750943 0.060642462 -0.08678386 -0.030375158 0.010160643 -0.0704928 0.020220136
0.31333882 0.0139889475 -0.014582665 0.045820963 -0.07026572 -0.09942425 0.0048727896 -0.043261867
00000000: 69f9 df3e fb3f 673c f500 2cbc aa40 ad3d
00000010: 78ad 82bd 1963 853e 5442 e13d ca12 8d3d
00000020: 5781 42bd 747c da3e 42c6 a93d ae4a 0a3c
00000030: dd16 95ba 5431 62bd 50b9 ba3d 9b33 92b8
00000040: 31b3 ebbd 9ccf 353d c811 09be 88ca 35be
00000050: 04f8 c7bd 7db4 b7bd ca79 5bbd 37a8 60bc
00000060: 8f76 583c 1260 6bbd d57d 3cbe 0805 263e
00000070: 4338 16bd 81ea dcbb bf4d a5bd 6dd7 1e3d
00000080: e092 493d fedd 82bd 2be0 953a a8ba ecbc
00000090: 7bef 1e3e 7564 24bd acf6 a9bd ce7e 983d
000000a0: 797c 8cbd 8d43 973c ecbb 3e3d 3b6d 6abb
000000b0: 5e6c 94bd 5bc9 523e 4906 c9bd da63 e53e
000000c0: 8ca9 893e bb50 b1bd c792 613e db8c afbd
000000d0: bad6 83bd cb5a e6bd d9a6 2e3e 8fa9 db3d
000000e0: a61b 0cbd 12d6 ef3c 24f9 a33c 25d4 aa3e
000000f0: 46b9 82ba 17f3 cdbd 19b5 c5bd 9afb 1dbe
00000100: 17b6 b03c 07d2 00be a6fd eebd e1e5 0fbe
00000110: 2cf0 f43c 2271 02be 552d 923d b9da 6fbd
00000120: f121 16bd b969 873e f1c5 9d3a d551 063e
00000130: cc0e 3cbd c8f8 8c3d b1b6 91bd 330b 9fbd
00000140: 1aef 16be bbe9 36be 1cd3 093f e289 03be
00000150: fc99 d6bb 7959 4ebd 47f3 19be cb0d 033d
00000160: b513 cb3c c4ed 0dbd 1373 91bc afca 9e3c
00000170: 1c73 36bc d62a 583e e86e fabc 2dad a0bd
00000180: 1810 e43c 8ba8 03be a9aa 77bd 09c6 06be
00000190: 05c9 a23e ce7f ad3d a5b0 4dbe 6573 b6bd
000001a0: 5374 d6bd b0d1 6b3d e351 c1bd 5471 fb3e
000001b0: 5dac b4bd 4403 31be 910f 013d d7a0 82bd
000001c0: 0c29 af3d bbcc a1bc 3b64 783d bdbb b1bd
000001d0: 53d5 f8bc d378 263c 875e 90bd b3a4 a53c
000001e0: f26d a03e e631 653c 21ec 6ebc c3ae 3b3d
000001f0: 79e7 8fbd f19e cbbd ecab 9f3b 5b33 31bd

fc3.weight f4 [4, 128]
0.12937696 0.07745764 0.40575886 0.25181738 -0.0058724545 0.14990062 0.15548782 0.049908414
0.1286059 0.1011134 0.26838613 -0.3892666 -0.07153608 -0.020883504 0.016887538 0.2138134
-0.27095538 0.26213825 0.027647685 -0.054397427 0.058756243 0.032787524 0.06656019 -0.1503822
0.25785172 -0.06633491 -0.5001776 0.07587842 -0.06459591 0.035070304 -0.12224603 0.3261433
0.34261793 -0.07725753 -0.11760112 0.23521808 0.098624475 -0.07111535 -0.23520306 0.038056325
0.11323951 -0.17122763 -0.058354218 0.045973305 -0.06582303 0.08498448 -0.062674105 0.118513405
0.14276133 -0.19297995 0.09615213 -0.19966105 -0.6523213 -0.08058251 0.14091972 0.05616372
0.07942679 0.082007915 0.26114637 0.3487972 0.14300059 0.09171286 -0.23830785 -0.27628326
0.13997097 -0.05786244 0.012213765 0.21919978 0.012330611 -0.11130271 -0.03334314 -0.0372108
0.1413684 0.07720388 -0.15097062 0.019128615 -0.24875757 0.08932291 0.11746034 0.15191947
0.04720045 -0.11591669 0.17985322 -0.2543931 0.15912797 -0.004614912 0.34129193 0.2698955
0.14656314 -0.123816565 0.26060313 -0.25075763 0.036522973 0.18145162 0.55814284 -0.33679882
0.30677515 -0.13429703 -0.1166901 -0.085674465 0.107704915 0.06665579 -0.055023365 -0.2682172
0.11928337 0.046984907 -0.18549979 0.17527793 0.15893789 -0.1358961 0.11972905 -0.38341865
0.19449325 -0.07683868 0.1800291 -0.21251042 0.07349837 0.115013584 0.13933913 -0.103508584
0.05335306 0.05131916 -0.09027228 0.2436791 0.1599499 -0.13108021 -0.30671343 -0.25994775
0.13275884 0.20876929 0.34735984 0.34808648 0.19255055 0.044691823 0.1493683 0.17005627
0.2222108 0.1060303 0.38838345 -0.1550021 0.32452354 -0.10923475 0.04113213 0.2912883
-0.27235115 0.23503911 0.093038574 -0.19258182 -0.42669716 -0.051660843 0.18761083 0.018783826
0.18646686 -0.039498277 -0.12800437 0.085557766 0.019518966 0.07381625 0.019281698 0.29585817
0.3529061 -0.38212088 -0.36882395 0.28476003 0.11940732 -0.16711143 -0.14973083 0.1647363
0.038292512 -0.09956709 0.04618376 0.14250654 -0.23166116 0.045607712 -0.047565766 0.10062435
0.16211048 0.16401269 0.15334064 0.076915294 -0.14169085 -0.12079857 0.1131162 0.0787589
-0.09736485 -0.098992266 0.30835062 0.21864328 0.28255525 -0.21626486 -0.17485465 -0.19409771
0.126797 -0.06112657 -0.018240763 -0.031339064 -0.011585746 0.0122167375 -0.41604826 0.079126
0.14309885 0.06690178 0.047675557 -0.10817216 -0.17858326 0.08438592 -0.18595247 0.18427919
0.05690398 -0.11447156 0.16064751 -0.12878096 0.14443183 0.11981189 0.22540106 0.21088009
0.010217226 0.017250434 0.26355615 0.1765898 0.067268565 0.121229306 0.55173004 0.08262601
0.3309457 -0.14397861 0.050214306 -0.16779552 0.064135954 -0.06680671 -0.020190526 -0.061428323
-0.37071976 -0.0001395042 -0.19120972 0.18328512 0.19327396 -0.061082333 0.17034939 0.022426039
0.116681054 -0.035777256 0.27531204 0.13096064 -0.34479794 0.24009228 -0.17806308 0.0879138
0.12826274 -0.00048698846 -0.7318602 0.17429377 0.039767005 -0.0733144 -0.13155809 0.029243158
00000000: 657b 043e 1ca2 9e3d a0bf cf3e 35ee 803e
00000010: b86d c0bb 8c7f 193e 3338 1f3e c46c 4c3d
00000020: 44b1 033e 8b14 cf3d e869 893e f44d c7be
00000030: 8281 92bd e213 abbc bc57 8a3c e6f1 5a3e
00000040: aaba 8abe fc36 863e 667d e23c d6cf 5ebd
00000050: 63aa 703d 364c 063d b550 883d cbfd 19be
00000060: 2405 843e 99da 87bd a40b 00bf 2566 9b3d
00000070: dc4a 84bd e1a5 0f3d 205c fabd 41fc a63e
00000080: 9e6b af3e 3239 9ebd dbd8 f0bd 02dd 703e
00000090: a1fb c93d eda4 91bd 12d9 70be f3e0 1b3d
000000a0: 1eea e73d 4c56 2fbe d504 6fbd 814e 3c3d
000000b0: 3ace 86bd 580c ae3d 485b 80bd 28b7 f23d
000000c0: 0730 123e 899c 45be 68eb c43d f273 4cbe
000000d0: 87fe 26bf 7108 a5bd 424d 103e ee0b 663d
000000e0: 83aa a23d c4f3 a73d fab4 853e 8c95 b23e
000000f0: bf6e 123e f4d3 bb3d f906 74be 0075 8dbe
00000100: 8d54 0f3e 2a01 6dbd 3e1c 483c e875 603e
00000110: 5506 4a3c adf2 e3bd d192 08bd 5a6a 18bd
00000120: e1c2 103e 111d 9e3d 0b98 1abe 9db3 9c3c
00000130: 4eba 7ebe eeee b63d 0c8f f03d c790 1b3e
00000140: 4255 413d bb65 edbd 712b 383e d03f 82be
00000150: 71f2 223e b038 97bb d1bd ae3e be2f 8a3e
00000160: a614 163e 8a93 fdbd c66d 853e 4e63 80be
00000170: 1d99 153d 74ce 393e 73e2 0e3f e570 acbe
00000180: a211 9d3e 2985 09be 38fb eebd 1876 afbd
00000190: 6594 dc3d d582 883d 2e60 61bd c453 89be
000001a0: d74a f43d 3f73 403d a8f3 3dbe 0f7c 333e
000001b0: 9dc0 223e 5928 0bbe 8134 f53d 734f c4be
000001c0: 3d29 473e 995d 9dbd 8c59 383e 559c 59be
000001d0: 5086 963d 3e8c eb3d ebae 0e3e 4ffc d3bd
000001e0: bd88 5a3d 0a34 523d ace0 b8bd 0487 793e
000001f0: e8c9 233e e439 06be 8b09 9dbe df17 85be
00000200: eff1 073e 9ec7 553e 26d9 b13e 6438 b23e
00000210: f92b 453e c60e 373d 01f4 183e 3b23 2e3e
00000220: 3a8b 633e 6a26 d93d 32da c63e dfb8 1ebe
00000230: f327 a63e 78b6 dfbd 2a7a 283d bd23 953e
00000240: 9c71 8bbe 18ae 703e 028b be3d 2b34 45be
00000250: 0d78 dabe 529a 53bd 0e1d 403e 8ae0 993c
00000260: 2bf1 3e3e f2c8 21bd 9413 03be e938 af3d
00000270: 3de6 9f3c f92c 973d a7f4 9d3c b97a 973e
00000280: 1cb0 b43e 59a5 c3be 7ed6 bcbe 11cc 913e
00000290: d38b f43d 421f 2bbe 0a53 19be a2b0 283e
000002a0: 9cd8 1c3d d5e9 cbbd 2f2b 3d3d 3ced 113e
000002b0: 9538 6dbe 27cf 3a3d 52d4 42bd 2414 ce3d
000002c0: 4a00 263e f1f2 273e 5405 1d3e c485 9d3d
000002d0: 6817 11be 3e65 f7bd 77a9 e73d 594c a13d
000002e0: 3967 c7bd 75bc cabd 22e0 9d3e 06e4 5f3e
000002f0: 15ab 903e 8974 5dbe 190d 33be 8dc1 46be
00000300: 13d7 013e db5f 7abd a76d 95bc 645d 00bd
00000310: 24d2 3dbc b628 483c 4704 d5be d00c a23d
00000320: 8188 123e cd03 893d 7247 433d 5e89 ddbd
00000330: 88de 36be 86d2 ac3d 536a 3ebe afb3 3c3e
00000340: 2614 693d 1170 eabd c880 243e 28df 03be
00000350: f0e5 133e f05f f53d 89cf 663e f3f0 573e
00000360: 2766 273c c850 8d3c d5f0 863e f5d3 343e
00000370: 1ac4 893d 1247 f83d 2e3e 0d3f d337 a93d
00000380: b771 a93e 216f 13be 84ad 4d3d 97d2 2bbe
00000390: b659 833d f5d1 88bd 9a66 a5bc 449c 7bbd
000003a0: fbce bdbe e047 12b9 7bcc 43be 18af 3b3e
000003b0: 9ce9 453e 7831 7abd 1270 2e3e d0b6 b73c
000003c0: 7af6 ee3d 2c8b 12bd b3f5 8c3e 8c1a 063e
000003d0: 5b89 b0be c0da 753e 2b56 36be 260c b43d
000003e0: 4f57 033e 7c52 ffb9 315b 3bbf 117a 323e
000003f0: bae2 223d dc25 96bd 2ab7 06be 598f ef3c

fc3.bias f4 [4]
0.2884207 0.31223136 0.28449094 0.30400437
00000000: e1ab 933e cadc 9f3e cca8 913e 76a6 9b3e
